…
 add_3 (Add)                    (None, 25, 25, 30,   0           ['conv3d_16[0][0]',              
                                32)                               'conv3d_17[0][0]']              
                                                                                                  
 batch_normalization_10 (BatchN  (None, 25, 25, 30,   128        ['add_3[0][0]']                  
 ormalization)                  32)                                                               
                                                                                                  
 reshape_1 (Reshape)            (None, 25, 25, 960)  0           ['batch_normalization_10[0][0]'] 
                                                                                                  
 conv2d_12 (Conv2D)             (None, 25, 25, 512)  4424192     ['reshape_1[0][0]']              
                                                                                                  
 batch_normalization_11 (BatchN  (None, 25, 25, 512)  2048       ['conv2d_12[0][0]']              
 ormalization)                                                                                    
                                                                                                  
 conv2d_14 (Conv2D)             (None, 25, 25, 96)   49248       ['batch_normalization_11[0][0]'] 
                                                                                                  
 conv2d_16 (Conv2D)             (None, 25, 25, 16)   8208        ['batch_normalization_11[0][0]'] 
                                                                                                  
 conv2d_18 (Conv2D)             (None, 25, 25, 16)   8208        ['batch_normalization_11[0][0]'] 
                                                                                                  
 conv2d_20 (Conv2D)             (None, 25, 25, 16)   8208        ['batch_normalization_11[0][0]'] 
                                                                                                  
 max_pooling2d_1 (MaxPooling2D)  (None, 25, 25, 512)  0          ['batch_normalization_11[0][0]'] 
                                                                                                  
 conv2d_13 (Conv2D)             (None, 25, 25, 256)  131328      ['batch_normalization_11[0][0]'] 
                                                                                                  
 conv2d_15 (Conv2D)             (None, 25, 25, 128)  110720      ['conv2d_14[0][0]']              
                                                                                                  
 conv2d_17 (Conv2D)             (None, 25, 25, 128)  51328       ['conv2d_16[0][0]']              
                                                                                                  
 conv2d_19 (Conv2D)             (None, 25, 25, 128)  100480      ['conv2d_18[0][0]']              
                                                                                                  
 conv2d_21 (Conv2D)             (None, 25, 25, 64)   83008       ['conv2d_20[0][0]']              
                                                                                                  
 conv2d_22 (Conv2D)             (None, 25, 25, 32)   16416       ['max_pooling2d_1[0][0]']        
                                                                                                  
 conv2d_23 (Conv2D)             (None, 25, 25, 96)   49248       ['batch_normalization_11[0][0]'] 
                                                                                                  
 concatenate_3 (Concatenate)    (None, 25, 25, 832)  0           ['conv2d_13[0][0]',              
                                                                  'conv2d_15[0][0]',              
                                                                  'conv2d_17[0][0]',              
                                                                  'conv2d_19[0][0]',              
                                                                  'conv2d_21[0][0]',              
                                                                  'conv2d_22[0][0]',              
                                                                  'conv2d_23[0][0]']              
                                                                                                  
 batch_normalization1 (BatchNor  (None, 25, 25, 832)  3328       ['concatenate_3[0][0]']          
 malization)                                                                                      
                                                                                                  
 avg_pooling (AveragePooling2D)  (None, 23, 23, 832)  0          ['batch_normalization1[0][0]']   
                                                                                                  
 flatten_1 (Flatten)            (None, 440128)       0           ['avg_pooling[0][0]']            
                                                                                                  
 dense_3 (Dense)                (None, 256)          112673024   ['flatten_1[0][0]']              
                                                                                                  
 dropout_2 (Dropout)            (None, 256)          0           ['dense_3[0][0]']                
                                                                                                  
 dense_4 (Dense)                (None, 32)           8224        ['dropout_2[0][0]']              
                                                                                                  
 dropout_3 (Dropout)            (None, 32)           0           ['dense_4[0][0]']                
                                                                                                  
 dense_5 (Dense)                (None, 16)           528         ['dropout_3[0][0]']              
                                                                                                  
 prob (Activation)              (None, 16)           0           ['dense_5[0][0]']                
                                                                                                  
==================================================================================================
Total params: 117,951,296
Trainable params: 117,948,456
Non-trainable params: 2,840
__________________________________________________________________________________________________
…
