…
 99.6296 : Buildings-Grass-Trees-Drives
100.0000 : Stone-Steel-Towers


Model: "model"
__________________________________________________________________________________________________
 Layer (type)                   Output Shape         Param #     Connected to                     
==================================================================================================
 input_1 (InputLayer)           [(None, 27, 27, 9)]  0           []                               
                                                                                                  
 conv2d_1 (Conv2D)              (None, 27, 27, 96)   960         ['input_1[0][0]']                
                                                                                                  
 conv2d_3 (Conv2D)              (None, 27, 27, 16)   160         ['input_1[0][0]']                
                                                                                                  
 conv2d_5 (Conv2D)              (None, 27, 27, 16)   160         ['input_1[0][0]']                
                                                                                                  
 conv2d_7 (Conv2D)              (None, 27, 27, 16)   160         ['input_1[0][0]']                
                                                                                                  
 max_pooling2d (MaxPooling2D)   (None, 27, 27, 9)    0           ['input_1[0][0]']                
                                                                                                  
 conv2d (Conv2D)                (None, 27, 27, 256)  2560        ['input_1[0][0]']                
                                                                                                  
 conv2d_2 (Conv2D)              (None, 27, 27, 128)  110720      ['conv2d_1[0][0]']               
                                                                                                  
 conv2d_4 (Conv2D)              (None, 27, 27, 128)  51328       ['conv2d_3[0][0]']               
                                                                                                  
 conv2d_6 (Conv2D)              (None, 27, 27, 128)  100480      ['conv2d_5[0][0]']               
                                                                                                  
 conv2d_8 (Conv2D)              (None, 27, 27, 64)   83008       ['conv2d_7[0][0]']               
                                                                                                  
 conv2d_9 (Conv2D)              (None, 27, 27, 32)   320         ['max_pooling2d[0][0]']          
                                                                                                  
 flatten_1 (Flatten)            (None, 6561)         0           ['input_1[0][0]']                
                                                                                                  
 concatenate (Concatenate)      (None, 27, 27, 736)  0           ['conv2d[0][0]',                 
                                                                  'conv2d_2[0][0]',               
                                                                  'conv2d_4[0][0]',               
                                                                  'conv2d_6[0][0]',               
                                                                  'conv2d_8[0][0]',               
                                                                  'conv2d_9[0][0]']               
                                                                                                  
 dense_1 (Dense)                (None, 16)           104992      ['flatten_1[0][0]']              
                                                                                                  
 avg_pooling (AveragePooling2D)  (None, 25, 25, 736)  0          ['concatenate[0][0]']            
                                                                                                  
 dropout_1 (Dropout)            (None, 16)           0           ['dense_1[0][0]']                
                                                                                                  
 flatten (Flatten)              (None, 460000)       0           ['avg_pooling[0][0]']            
                                                                                                  
 dense_2 (Dense)                (None, 16)           272         ['dropout_1[0][0]']              
                                                                                                  
 dense (Dense)                  (None, 16)           7360016     ['flatten[0][0]']                
                                                                                                  
 dropout_2 (Dropout)            (None, 16)           0           ['dense_2[0][0]']                
                                                                                                  
 dropout (Dropout)              (None, 16)           0           ['dense[0][0]']                  
                                                                                                  
 concatenate_1 (Concatenate)    (None, 32)           0           ['dropout_2[0][0]',              
                                                                  'dropout[0][0]']                
                                                                                                  
 dense_3 (Dense)                (None, 32)           1056        ['concatenate_1[0][0]']          
                                                                                                  
 dropout_3 (Dropout)            (None, 32)           0           ['dense_3[0][0]']                
                                                                                                  
 dense_4 (Dense)                (None, 16)           528         ['dropout_3[0][0]']              
                                                                                                  
 prob (Activation)              (None, 16)           0           ['dense_4[0][0]']                
                                                                                                  
==================================================================================================
Total params: 7,816,720
Trainable params: 7,816,720
Non-trainable params: 0
__________________________________________________________________________________________________
…
