…
 99.8926 : Bitumen
100.0000 : Self-Blocking Bricks
100.0000 : Shadows


Model: "model"
__________________________________________________________________________________________________
Layer (type)                    Output Shape         Param #     Connected to                     
==================================================================================================
input_1 (InputLayer)            [(None, 25, 25, 9)]  0                                            
__________________________________________________________________________________________________
spectral_filter (Conv2D)        (None, 25, 25, 512)  5120        input_1[0][0]                    
__________________________________________________________________________________________________
conv2d_1 (Conv2D)               (None, 25, 25, 96)   49248       spectral_filter[0][0]            
__________________________________________________________________________________________________
conv2d_3 (Conv2D)               (None, 25, 25, 16)   8208        spectral_filter[0][0]            
__________________________________________________________________________________________________
conv2d_5 (Conv2D)               (None, 25, 25, 16)   8208        spectral_filter[0][0]            
__________________________________________________________________________________________________
conv2d_7 (Conv2D)               (None, 25, 25, 16)   8208        spectral_filter[0][0]            
__________________________________________________________________________________________________
max_pooling2d (MaxPooling2D)    (None, 25, 25, 512)  0           spectral_filter[0][0]            
__________________________________________________________________________________________________
conv2d (Conv2D)                 (None, 25, 25, 256)  131328      spectral_filter[0][0]            
__________________________________________________________________________________________________
conv2d_2 (Conv2D)               (None, 25, 25, 128)  110720      conv2d_1[0][0]                   
__________________________________________________________________________________________________
conv2d_4 (Conv2D)               (None, 25, 25, 128)  51328       conv2d_3[0][0]                   
__________________________________________________________________________________________________
conv2d_6 (Conv2D)               (None, 25, 25, 128)  100480      conv2d_5[0][0]                   
__________________________________________________________________________________________________
conv2d_8 (Conv2D)               (None, 25, 25, 64)   83008       conv2d_7[0][0]                   
__________________________________________________________________________________________________
conv2d_9 (Conv2D)               (None, 25, 25, 32)   16416       max_pooling2d[0][0]              
__________________________________________________________________________________________________
flatten_1 (Flatten)             (None, 5625)         0           input_1[0][0]                    
__________________________________________________________________________________________________
concatenate (Concatenate)       (None, 25, 25, 736)  0           conv2d[0][0]                     
                                                                 conv2d_2[0][0]                   
                                                                 conv2d_4[0][0]                   
                                                                 conv2d_6[0][0]                   
                                                                 conv2d_8[0][0]                   
                                                                 conv2d_9[0][0]                   
__________________________________________________________________________________________________
dense_1 (Dense)                 (None, 16)           90016       flatten_1[0][0]                  
__________________________________________________________________________________________________
avg_pooling (AveragePooling2D)  (None, 23, 23, 736)  0           concatenate[0][0]                
__________________________________________________________________________________________________
dropout_1 (Dropout)             (None, 16)           0           dense_1[0][0]                    
__________________________________________________________________________________________________
flatten (Flatten)               (None, 389344)       0           avg_pooling[0][0]                
__________________________________________________________________________________________________
dense_2 (Dense)                 (None, 16)           272         dropout_1[0][0]                  
__________________________________________________________________________________________________
dense (Dense)                   (None, 16)           6229520     flatten[0][0]                    
__________________________________________________________________________________________________
dropout_2 (Dropout)             (None, 16)           0           dense_2[0][0]                    
__________________________________________________________________________________________________
dropout (Dropout)               (None, 16)           0           dense[0][0]                      
__________________________________________________________________________________________________
concatenate_1 (Concatenate)     (None, 32)           0           dropout_2[0][0]                  
                                                                 dropout[0][0]                    
__________________________________________________________________________________________________
dense_3 (Dense)                 (None, 32)           1056        concatenate_1[0][0]              
__________________________________________________________________________________________________
dropout_3 (Dropout)             (None, 32)           0           dense_3[0][0]                    
__________________________________________________________________________________________________
dense_4 (Dense)                 (None, 9)            297         dropout_3[0][0]                  
__________________________________________________________________________________________________
prob (Activation)               (None, 9)            0           dense_4[0][0]                    
==================================================================================================
Total params: 6,893,433
Trainable params: 6,893,433
Non-trainable params: 0
__________________________________________________________________________________________________

Configuration for dataset [PU_100]:

Test Set Ratio: 70.0% of samples
Window Size   : 25 pixels per side
…
